…
            "Using TensorFlow backend.\n"
          ],
          "name": "stderr"
        },
        {
          "output_type": "stream",
          "text": [
            "y shape (2767, 2)\n",
            "x shape (2767, 160, 160, 3)\n",
            "Without Mask\n",
            "Model: \"sequential_1\"\n",
            "_________________________________________________________________\n",
            "Layer (type)                 Output Shape              Param #   \n",
            "=================================================================\n",
            "conv2d_1 (Conv2D)            (None, 158, 158, 32)      896       \n",
            "_________________________________________________________________\n",
            "max_pooling2d_1 (MaxPooling2 (None, 79, 79, 32)        0         \n",
            "_________________________________________________________________\n",
            "conv2d_2 (Conv2D)            (None, 77, 77, 32)        9248      \n",
            "_________________________________________________________________\n",
            "max_pooling2d_2 (MaxPooling2 (None, 38, 38, 32)        0         \n",
            "_________________________________________________________________\n",
            "conv2d_3 (Conv2D)            (None, 36, 36, 64)        18496     \n",
            "_________________________________________________________________\n",
            "max_pooling2d_3 (MaxPooling2 (None, 18, 18, 64)        0         \n",
            "_________________________________________________________________\n",
            "dropout_1 (Dropout)          (None, 18, 18, 64)        0         \n",
            "_________________________________________________________________\n",
            "flatten_1 (Flatten)          (None, 20736)             0         \n",
            "_________________________________________________________________\n",
            "dense_1 (Dense)              (None, 64)                1327168   \n",
            "_________________________________________________________________\n",
            "dense_2 (Dense)              (None, 32)                2080      \n",
            "_________________________________________________________________\n",
            "dense_3 (Dense)              (None, 2)                 66        \n",
            "=================================================================\n",
            "Total params: 1,357,954\n",
            "Trainable params: 1,357,954\n",
            "Non-trainable params: 0\n",
            "_________________________________________________________________\n",
            "Train on 2213 samples, validate on 554 samples\n",
            "Epoch 1/10\n",
            "2213/2213 [==============================] - 130s 59ms/step - loss: 1.0150 - accuracy: 0.6390 - val_loss: 0.5715 - val_accuracy: 0.7527\n",
…
